results/tessting/My Behavior/My Behavior-3056.pt (torch, 143529 bytes, 10 tensors)

network_body._body_endoder.seq_layers.0.weight f4 [128, 1]
1.2596356 0.37539253 -1.3176936 -0.16308317 -0.44468462 -0.37071615 1.8389926 2.0510876
-0.07672723 0.3028963 -0.97262794 0.5777922 -0.25609776 -0.009526208 1.8616178 2.92704
-1.7830013 0.8252289 0.30527946 -0.7001387 -0.66956484 2.45882 -1.2478305 0.78552663
-0.28418338 -0.28622082 0.8537866 1.6214603 -0.21275486 -1.5327643 0.43634784 -0.052501954
0.93953574 0.13044795 -0.026290327 -1.6698167 -0.03756292 0.47439712 1.2418453 -1.6610203
0.5413504 1.2094195 -0.45186144 0.3343762 -1.882723 0.25593233 -0.7234229 -1.1750172
0.51062864 0.50691044 0.8046753 2.1219423 -1.6713686 -1.9279819 -0.7083791 0.5335122
-1.0210522 -0.4075159 1.5815151 -1.2727685 -0.6159356 0.80362874 -0.8499301 1.2966751
-1.2617705 0.9070009 0.6849083 -1.1265488 -0.7555356 -0.31321135 0.39724103 -1.3011839
-0.66021305 -1.9552699 -0.7562548 -0.3322792 1.2622889 0.5574393 -0.38879246 0.6513867
-1.3596684 0.082339786 0.570305 0.44568345 -1.3338671 0.03474631 1.8037981 -0.11536426
0.6047539 0.34836674 0.61346805 -2.0351856 0.5083119 0.19399321 0.5232981 -0.9298157
0.9270452 0.22303502 0.20987827 -0.50663257 -0.9095982 0.5939843 0.20553912 -0.23677108
-1.0833738 0.15362215 -1.4211998 1.7628134 -0.40023026 0.9515595 -1.5530115 -0.5463825
-1.0464123 0.96020377 1.1139716 0.7189961 0.6895133 1.0904918 -1.2990162 0.4678179
-0.78247833 0.21962865 1.961828 1.2278476 -0.18469866 -0.5891129 1.7865179 0.031817682
00000000: bd3b a13f 7333 c03e 2faa a8bf 46ff 26be
00000010: b4ad e3be 82ce bdbe 1c64 eb3f 0545 0340
00000020: 2a23 9dbd 3915 9b3e 25fe 78bf 31ea 133f
00000030: 3f1f 83be d013 1cbc 7e49 ee3f a054 3b40
00000040: 6339 e4bf 3442 533f 974d 9c3e 4a3c 33bf
00000050: 9a68 2bbf 4f5d 1d40 e9b8 9fbf 4618 493f
00000060: 7c80 91be 898b 92be c291 5a3f 038c cf3f
00000070: 69dc 59be 9f31 c4bf fc68 df3e 4a0c 57bd
00000080: 6a85 703f 2694 053e d05e d7bc 8ebc d5bf
00000090: 94db 19bd 2ee4 f23e c9f4 9e3f 509c d4bf
000000a0: f195 0a3f 42ce 9a3f 625a e7be 5b33 ab3e
000000b0: 11fd f0bf 9009 833e 3e32 39bf f766 96bf
000000c0: 8fb8 023f e2c4 013f 33ff 4d3f e7cd 0740
000000d0: 68ef d5bf 1cc8 f6bf 5558 35bf 4194 083f
000000e0: d7b1 82bf eda5 d0be 166f ca3f 14ea a2bf
000000f0: f5ad 1dbf 9dba 4d3f 0595 59bf 73f9 a53f
00000100: b281 a1bf 3631 683f 2656 2f3f c032 90bf
00000110: c86a 41bf 3d5d a0be 2d63 cb3e 328d a6bf
00000120: b903 29bf 4946 fabf ea99 41bf 8020 aabe
00000130: af92 a13f 58b4 0e3f ce0f c7be 47c1 263f
00000140: 9d09 aebf c3a1 a83d 82ff 113f 9f30 e43e
00000150: 28bc aabf 2652 0e3d dbe2 e63f 1944 ecbd
00000160: 27d1 1a3f 205d b23e 3e0c 1d3f 7b40 02c0
00000170: bb20 023f 28a6 463e ddf6 053f 6708 6ebf
00000180: d652 6d3f 4b63 643e 54ea 563e acb2 01bf
00000190: 6ddb 68bf 5b0f 183f d978 523e 1e74 72be
000001a0: feab 8abf 204f 1d3e e0e9 b5bf dfa3 e13f
000001b0: fbea ccbe 6799 733f 15c9 c6bf b9df 0bbf
000001c0: d7f0 85bf eacf 753f 9f96 8e3f 2110 383f
000001d0: f283 303f 3c95 8b3f 2a46 a6bf d485 ef3e
000001e0: 8050 48bf 55e6 603e 2e1d fb3f 1c2a 9d3f
000001f0: a521 3dbe 1ad0 16bf 9eac e43f 4253 023d

network_body._body_endoder.seq_layers.0.bias f4 [128]
0.0 0.0 0.0 0.0 0.0 0.0 0.0 0.0
0.0 0.0 0.0 0.0 0.0 0.0 0.0 0.0
0.0 0.0 0.0 0.0 0.0 0.0 0.0 0.0
0.0 0.0 0.0 0.0 0.0 0.0 0.0 0.0
0.0 0.0 0.0 0.0 0.0 0.0 0.0 0.0
0.0 0.0 0.0 0.0 0.0 0.0 0.0 0.0
0.0 0.0 0.0 0.0 0.0 0.0 0.0 0.0
0.0 0.0 0.0 0.0 0.0 0.0 0.0 0.0
0.0 0.0 0.0 0.0 0.0 0.0 0.0 0.0
0.0 0.0 0.0 0.0 0.0 0.0 0.0 0.0
0.0 0.0 0.0 0.0 0.0 0.0 0.0 0.0
0.0 0.0 0.0 0.0 0.0 0.0 0.0 0.0
0.0 0.0 0.0 0.0 0.0 0.0 0.0 0.0
0.0 0.0 0.0 0.0 0.0 0.0 0.0 0.0
0.0 0.0 0.0 0.0 0.0 0.0 0.0 0.0
0.0 0.0 0.0 0.0 0.0 0.0 0.0 0.0
00000000: 0000 0000 0000 0000 0000 0000 0000 0000
00000010: 0000 0000 0000 0000 0000 0000 0000 0000
00000020: 0000 0000 0000 0000 0000 0000 0000 0000
00000030: 0000 0000 0000 0000 0000 0000 0000 0000
00000040: 0000 0000 0000 0000 0000 0000 0000 0000
00000050: 0000 0000 0000 0000 0000 0000 0000 0000
00000060: 0000 0000 0000 0000 0000 0000 0000 0000
00000070: 0000 0000 0000 0000 0000 0000 0000 0000
00000080: 0000 0000 0000 0000 0000 0000 0000 0000
00000090: 0000 0000 0000 0000 0000 0000 0000 0000
000000a0: 0000 0000 0000 0000 0000 0000 0000 0000
000000b0: 0000 0000 0000 0000 0000 0000 0000 0000
000000c0: 0000 0000 0000 0000 0000 0000 0000 0000
000000d0: 0000 0000 0000 0000 0000 0000 0000 0000
000000e0: 0000 0000 0000 0000 0000 0000 0000 0000
000000f0: 0000 0000 0000 0000 0000 0000 0000 0000
00000100: 0000 0000 0000 0000 0000 0000 0000 0000
00000110: 0000 0000 0000 0000 0000 0000 0000 0000
00000120: 0000 0000 0000 0000 0000 0000 0000 0000
00000130: 0000 0000 0000 0000 0000 0000 0000 0000
00000140: 0000 0000 0000 0000 0000 0000 0000 0000
00000150: 0000 0000 0000 0000 0000 0000 0000 0000
00000160: 0000 0000 0000 0000 0000 0000 0000 0000
00000170: 0000 0000 0000 0000 0000 0000 0000 0000
00000180: 0000 0000 0000 0000 0000 0000 0000 0000
00000190: 0000 0000 0000 0000 0000 0000 0000 0000
000001a0: 0000 0000 0000 0000 0000 0000 0000 0000
000001b0: 0000 0000 0000 0000 0000 0000 0000 0000
000001c0: 0000 0000 0000 0000 0000 0000 0000 0000
000001d0: 0000 0000 0000 0000 0000 0000 0000 0000
000001e0: 0000 0000 0000 0000 0000 0000 0000 0000
000001f0: 0000 0000 0000 0000 0000 0000 0000 0000

network_body._body_endoder.seq_layers.2.weight f4 [128, 128]
-0.0019672287 -0.1626334 -0.045529284 -0.1261303 -0.031689063 0.03724155 -0.059040353 0.0096447775
-0.030807588 0.044952746 0.07413522 0.08670729 -0.19699405 -0.031644072 -0.06011517 0.09909006
-0.034192264 -0.08948031 0.12659353 -0.21466435 -0.009740385 0.0036232388 0.025079787 -0.060908087
-0.118825346 -0.06874439 0.060100332 -0.049275696 0.18348093 0.01023071 -0.070809074 -0.09942996
-0.008270167 -0.0033653053 -0.013241243 0.05790697 0.090609126 0.14462467 -0.024756083 -0.081308134
0.052318726 0.048852887 -0.0653432 -0.10510605 0.027284246 -0.22162284 0.057811458 -0.048053697
0.02722984 0.024224825 -0.1344763 0.072121605 -0.07163629 0.03186801 0.016415572 0.2124638
-0.09741332 0.13631436 0.072900794 0.09465319 0.058022544 0.019254167 0.08361577 -0.12168091
-0.056395076 -0.10371655 0.19882812 -0.009388221 -0.2075228 0.22308636 -0.085095815 -0.011291631
0.22505982 0.012998788 0.060451165 -0.032792393 -0.086384095 -0.06572383 -0.10667652 0.036382165
0.1322578 -0.01578386 0.17554063 -0.03688681 -0.03152637 -0.017263535 0.012616609 -0.037774395
0.16925344 0.05126823 0.06649097 0.04387949 -0.21620183 -0.053376827 -0.008267653 0.065510355
-0.074593134 -0.061578725 -0.14147471 0.034008645 -0.22101006 0.16283815 0.083964 0.062020283
0.028446985 0.08815664 -0.10127588 0.05013585 0.06287471 0.044550166 0.00026112807 -0.015882973
-0.038555887 -0.07688559 0.049989164 -0.017195677 0.042777345 0.023358775 0.023614736 -0.0022066997
-0.11882901 -0.06998929 0.042685088 0.04362211 -0.07702554 0.13799287 -0.1618112 -0.22088957
-0.010916873 0.0892105 -0.010318899 0.03773711 -0.09884754 -0.09191374 -0.10724873 -0.027864795
-0.116438724 -0.13840291 -0.09741798 -0.06375868 -0.11414735 -0.07669371 -0.19918758 -0.033853564
0.003729604 -0.018498272 -0.027274732 -0.017444905 0.09974577 -0.09421252 0.012363116 -0.0458543
-0.16811149 -0.065338045 -0.033823572 -0.057119817 -0.0027768384 0.06852252 0.0013500368 0.014388858
-0.061440725 0.00033943524 0.13552555 0.15725474 0.07005894 0.26577225 -0.093598306 0.00696209
0.047667675 -0.104734376 0.008610257 0.013125199 -0.03958325 0.04812865 -0.0486327 0.020513354
0.1400523 -0.011045911 0.003516968 -0.02042556 -0.27934736 0.072177656 -0.05851495 0.06660978
0.13871977 0.17471243 -0.080172665 -0.086779304 0.031308744 -0.008942417 0.037145544 -0.12577863
-0.011066376 -0.01700986 -0.059935737 0.08727787 0.00832015 -0.0023124854 -0.00034893453 0.109365076
-0.035513375 -0.11210221 -0.2545078 0.033674356 0.19481432 -0.029634403 -0.06971619 -0.06682209
0.085920356 -0.053570546 0.038880646 0.12554815 0.14729264 -0.12907578 -0.013283064 0.115458384
0.03978872 0.019370573 -0.07303745 0.13740271 0.008493356 0.031332966 -0.0518468 -0.060997657
0.09789601 -0.054086655 0.06498395 0.025934542 0.014327753 0.0050169327 0.052807923 -0.09016506
-0.11889195 0.0035781225 0.043820806 0.06445087 -0.032838676 0.08245746 -0.1102608 0.015097138
-0.0035117695 -0.043281794 0.061171155 0.17774943 0.015378877 -0.028151408 0.006577998 -0.042131346
-0.09247547 -0.012443633 -0.025000522 0.006518236 0.002347706 0.05077114 -0.2098495 -0.15244034
00000000: 9fec 00bb 5f89 26be ea7c 3abd 4d28 01be
00000010: 64cc 01bd 988a 183d 4cd4 71bd 2105 1e3c
00000020: 3260 fcbc 5f20 383d 35d4 973d 9793 b13d
00000030: cfb8 49be 379d 01bd 533b 76bd bbef ca3d
00000040: 300d 0cbd 7441 b7bd bca1 013e f9d0 5bbe
00000050: 2396 1fbc dc73 6d3b 2074 cd3c c27a 79bd
00000060: b45a f3bd dcc9 8cbd c42b 763d 50d5 49bd
00000070: 6de2 3b3e b59e 273c 5904 91bd efa1 cbbd
00000080: 987f 07bc 748c 5cbb ccf1 58bc dc2f 6d3d
00000090: 4791 b93d 7d18 143e 45cd cabc e184 a6bd
000000a0: 294c 563d f719 483d a8d2 85bd d741 d7bd
000000b0: 3683 df3c 19f1 62be b5cb 6c3d f4d3 44bd
000000c0: 1d11 df3c 2473 c63c 28b4 09be 7eb4 933d
000000d0: 0cb6 92bd 0888 023d f379 863c 1c90 593e
000000e0: a280 c7bd fe95 0b3e 034d 953d 88d9 c13d
000000f0: 0ca9 6d3d eaba 9d3c bf3e ab3d d733 f9bd
00000100: 86fe 66bd 5869 d4bd 9999 4b3e 0ed1 19bc
00000110: db80 54be c070 643e b746 aebd 8800 39bc
00000120: 1576 663e def8 543c a49b 773d 5151 06bd
00000130: 25ea b0bd 379a 86bd 3879 dabd 7705 153d
00000140: 976e 073e 274d 81bc ecc0 333e a016 17bd
00000150: cc21 01bd 426c 8dbc e5b5 4e3c 53b9 1abd
00000160: c650 2d3e a3fe 513d 6b2c 883d fbba 333d
00000170: 0364 5dbe a9a1 5abd 0d75 07bc 4b2a 863d
00000180: 49c4 98bd f939 7cbd bfde 10be a64c 0b3d
00000190: 7650 62be 0bbf 263e 51f5 ab3d fb08 7e3d
000001a0: a709 e93c 788b b43d bb69 cfbd 405b 4d3d
000001b0: 75c4 803d 3c7a 363d 04e8 8839 021d 82bc
000001c0: c7ec 1dbd 3176 9dbd 70c1 4c3d f3dd 8cbc
000001d0: 4c37 2f3d e75a bf3c b173 c13c 479e 10bb
000001e0: a05c f3bd 8b56 8fbd 8fd6 2e3d 19ad 323d
000001f0: 91bf 9dbd 014e 0d3e d6b1 25be e030 62be
00000200: afdc 32bc ffb3 b63d 9910 29bc 3a92 1a3d
00000210: 9470 cabd 453d bcbd 39a5 dbbd b644 e4bc
00000220: 6d77 eebd 7eb9 0dbe 1483 c7bd e993 82bd
00000230: 16c6 e9bd 9811 9dbd d4f7 4bbe 09aa 0abd
00000240: 5f6c 743b b089 97bc 426f dfbc 9ee8 8ebc
00000250: 8347 cc3d 7ef2 c0bd ab8e 4a3c b8d1 3bbd
00000260: 6b25 2cbe f4cf 85bd 968a 0abd 78f6 69bd
00000270: 9efb 35bb 8955 8c3d b8f3 b03a 3fbf 6b3c
00000280: 45a9 7bbd 3af6 b139 36c7 0a3e 6307 213e
00000290: 107b 8f3d 4d13 883e 78b0 bfbd 3e22 e43b
000002a0: 2e3f 433d fa7e d6bd 0912 0d3c 130b 573c
000002b0: 0c22 22bd 8c22 453d 1533 47bd 9f0b a83c
000002c0: df69 0f3e e9f9 34bc ef7c 663b 8153 a7bc
000002d0: 9e06 8fbe e1d1 933d 5fad 6fbd b56a 883d
000002e0: 8e0c 0e3e d1e7 323e 9131 a4bd 59b9 b1bd
000002f0: 993d 003d 3783 12bc ed25 183d 1dcc 00be
00000300: bf4f 35bc 4358 8bbc 2d7f 75bd bdbe b23d
00000310: 3d51 083c 118d 17bb 33f1 b6b9 ccfa df3d
00000320: 7976 11bd d895 e5bd d94e 82be 1fee 093d
00000330: 687d 473e d9c3 f2bc 5dc7 8ebd 05da 88bd
00000340: 03f7 af3d ca6c 5bbd 5041 1f3d b28f 003e
00000350: e2d3 163e 712c 04be 35a1 59bc 7275 ec3d
00000360: 7ff9 223d 09af 9e3c a994 95bd 4cb3 0c3e
00000370: b827 0b3c ff56 003d 4f5d 54bd aed8 79bd
00000380: b47d c83d f889 5dbd 4e16 853d ad74 d43c
00000390: f4be 6a3c 1565 a43b 1f4d 583d 75a8 b8bd
000003a0: 9f7d f3bd ef7e 6a3b 727d 333d d1fe 833d
000003b0: d981 06bd 75df a83d 6ad0 e1bd fc59 773c
000003c0: b725 66bb 4048 31bd 9b8e 7a3d f203 363e
000003d0: aff7 7b3c c89d e6bc 3f8c d73b eb91 2cbd
000003e0: c763 bdbd 61e0 4bbc e5cd ccbc ed96 d53b
000003f0: f8db 193b 66f5 4f3d cae2 56be 5219 1cbe

network_body._body_endoder.seq_layers.2.bias f4 [128]
0.0 0.0 0.0 0.0 0.0 0.0 0.0 0.0
0.0 0.0 0.0 0.0 0.0 0.0 0.0 0.0
0.0 0.0 0.0 0.0 0.0 0.0 0.0 0.0
0.0 0.0 0.0 0.0 0.0 0.0 0.0 0.0
0.0 0.0 0.0 0.0 0.0 0.0 0.0 0.0
0.0 0.0 0.0 0.0 0.0 0.0 0.0 0.0
0.0 0.0 0.0 0.0 0.0 0.0 0.0 0.0
0.0 0.0 0.0 0.0 0.0 0.0 0.0 0.0
0.0 0.0 0.0 0.0 0.0 0.0 0.0 0.0
0.0 0.0 0.0 0.0 0.0 0.0 0.0 0.0
0.0 0.0 0.0 0.0 0.0 0.0 0.0 0.0
0.0 0.0 0.0 0.0 0.0 0.0 0.0 0.0
0.0 0.0 0.0 0.0 0.0 0.0 0.0 0.0
0.0 0.0 0.0 0.0 0.0 0.0 0.0 0.0
0.0 0.0 0.0 0.0 0.0 0.0 0.0 0.0
0.0 0.0 0.0 0.0 0.0 0.0 0.0 0.0
00000000: 0000 0000 0000 0000 0000 0000 0000 0000
00000010: 0000 0000 0000 0000 0000 0000 0000 0000
00000020: 0000 0000 0000 0000 0000 0000 0000 0000
00000030: 0000 0000 0000 0000 0000 0000 0000 0000
00000040: 0000 0000 0000 0000 0000 0000 0000 0000
00000050: 0000 0000 0000 0000 0000 0000 0000 0000
00000060: 0000 0000 0000 0000 0000 0000 0000 0000
00000070: 0000 0000 0000 0000 0000 0000 0000 0000
00000080: 0000 0000 0000 0000 0000 0000 0000 0000
00000090: 0000 0000 0000 0000 0000 0000 0000 0000
000000a0: 0000 0000 0000 0000 0000 0000 0000 0000
000000b0: 0000 0000 0000 0000 0000 0000 0000 0000
000000c0: 0000 0000 0000 0000 0000 0000 0000 0000
000000d0: 0000 0000 0000 0000 0000 0000 0000 0000
000000e0: 0000 0000 0000 0000 0000 0000 0000 0000
000000f0: 0000 0000 0000 0000 0000 0000 0000 0000
00000100: 0000 0000 0000 0000 0000 0000 0000 0000
00000110: 0000 0000 0000 0000 0000 0000 0000 0000
00000120: 0000 0000 0000 0000 0000 0000 0000 0000
00000130: 0000 0000 0000 0000 0000 0000 0000 0000
00000140: 0000 0000 0000 0000 0000 0000 0000 0000
00000150: 0000 0000 0000 0000 0000 0000 0000 0000
00000160: 0000 0000 0000 0000 0000 0000 0000 0000
00000170: 0000 0000 0000 0000 0000 0000 0000 0000
00000180: 0000 0000 0000 0000 0000 0000 0000 0000
00000190: 0000 0000 0000 0000 0000 0000 0000 0000
000001a0: 0000 0000 0000 0000 0000 0000 0000 0000
000001b0: 0000 0000 0000 0000 0000 0000 0000 0000
000001c0: 0000 0000 0000 0000 0000 0000 0000 0000
000001d0: 0000 0000 0000 0000 0000 0000 0000 0000
000001e0: 0000 0000 0000 0000 0000 0000 0000 0000
000001f0: 0000 0000 0000 0000 0000 0000 0000 0000

action_model._discrete_distribution.branches.0.weight f4 [1, 128]
-0.0028135127 -0.0013881001 -0.004249047 -0.015295491 0.0029433682 0.003451449 -0.0013831392 0.0056242533
-0.009853517 -0.01375915 -0.009333776 0.015123583 -0.0030470395 0.001458113 0.010722225 0.005565512
0.0018749483 -0.0059705763 0.008236909 -0.0023573588 0.0037696075 -0.0015047868 0.0020262979 0.020106977
0.0014856661 0.0003207074 0.005631424 -0.0037811666 0.0022503037 0.0032611408 -0.0044576465 0.015475984
-0.0032572083 -0.00813908 0.0006799569 0.0081894 -0.0019963654 -0.019751595 -0.0024686006 -0.0013012137
-0.011836044 0.0061775604 0.01827221 0.008883982 -0.0011306318 0.0049027624 0.013961568 0.0082245935
-0.0041858037 0.005024661 0.004818831 -0.0013205254 -0.012087263 -0.0049494077 0.0077815102 0.002533435
-0.008763563 -0.010879731 -0.016433692 0.0020678532 -0.017011803 0.020588232 0.0003081495 0.003903484
0.009366887 0.0003778954 0.0013038936 0.0073859105 -0.0014687272 0.016478213 -0.0054901293 0.0029549869
0.008528616 -0.0061385403 -0.016859274 0.004468202 -0.0037551222 0.011516533 0.0068296986 -0.013365309
0.010451998 0.011573915 0.008511221 0.00077150034 0.017319186 -0.003958155 0.002451106 0.007679583
0.00074308406 0.010916613 0.011834188 0.005082644 -0.019519622 0.0013365482 0.0069236867 0.001284874
0.0071715913 0.0025006663 -0.0052387514 0.0020219057 -0.008167187 -0.010246847 0.016774597 0.019551795
-0.015651314 -0.018292481 -0.0056141214 -0.0073031397 0.0037783252 -0.016315954 9.609522e-05 0.006588559
0.0068418356 0.010714815 -0.0017604678 0.0050301286 0.014103358 -0.0028956926 0.008281978 0.015822874
0.0068554706 0.0026683852 0.005064349 0.010970912 0.016917523 -0.0012431273 0.0037518349 -0.0036770534
00000000: e962 38bb e9f0 b5ba 973b 8bbb f099 7abc
00000010: 86e5 403b b531 623b 734a b5ba a84b b83b
00000020: a570 21bc 0f6e 61bc b2ec 18bc e8c8 773c
00000030: d7b0 47bb 271e bf3a 45ac 2f3c e65e b63b
00000040: d3c0 f53a d3a4 c3bb 1af4 063c eb7d 1abb
00000050: 850b 773b 443c c5ba a3cb 043b 63b7 a43c
00000060: afba c23a 9e24 a839 cf87 b83b 73cd 77bb
00000070: d579 133b ddb8 553b 7311 92bb fb8e 7d3c
00000080: e376 55bb c759 05bc 233f 323a d52c 063c
00000090: 74d5 02bb 19ce a1bc 3fc8 21bb 7d8d aaba
000000a0: f7eb 41bc 226d ca3b 9aaf 953c 1f8e 113c
000000b0: b531 94ba 5aa7 a03b 0fbf 643c 72c0 063c
000000c0: 1129 89bb e9a5 a43b 49e7 9d3b 7b15 adba
000000d0: a809 46bc a42e a2bb 0afc fe3b fc07 263b
000000e0: 0c95 0fbc e640 32bc f39f 86bc d284 073b
000000f0: 565c 8bbc a7a8 a83c 208f a139 98d1 7f3b
00000100: 9277 193c 4320 c639 69e7 aa3a 8205 f23b
00000110: 4f82 c0ba 51fd 863c 8be6 b3bb 74a8 413b
00000120: 9cbb 0b3c cf25 c9bb 761c 8abc ff69 923b
00000130: 7f18 76bb d7af 3c3c aacb df3b 2bfa 5abc
00000140: db3e 2b3c 85a0 3d3c a672 0b3c 833e 4a3a
00000150: f7e0 8d3c 69b3 81bb bca2 203b 03a5 fb3b
00000160: 87cb 423a 98db 323c 2fe4 413c 4f8c a63b
00000170: 9de7 9fbc 1e2f af3a 18e0 e23b 3869 a83a
00000180: abff ea3b 38e2 233b d5a9 abbb f381 043b
00000190: aacf 05bc 64e2 27bc e16a 893c 162b a03c
000001a0: 2f37 80bc 1dda 95bc aaf6 b7bb 2d4f efbb
000001b0: c79d 773b 09a9 85bc ba86 c938 d7e4 d73b
000001c0: 7a31 e03b 318d 2f3c 7fbf e6ba c7d3 a43b
000001d0: c511 673c a9c5 3dbb 22b1 073c f99e 813c
000001e0: dba3 e03b 13e0 2e3b d7f2 a53b 57bf 333c
000001f0: 9e96 8a3c 6ef0 a2ba 58e1 753b b8fa 70bb

network_body._body_endoder.seq_layers.0.weight f4 [128, 1]
-0.6760617 0.082123674 -0.11558106 -0.756011 0.12424248 0.14324802 -1.4715478 0.49270716
0.6474842 0.002408678 0.73828447 0.586748 -0.63337255 0.786324 -0.33938405 -1.3517332
0.8709795 -1.5247741 -0.23504457 -0.53172153 1.4685543 -0.9772598 -0.08086767 -1.0422834
1.6480588 -0.5671957 2.0199447 0.08915561 -1.8509809 -0.6772605 -0.2008014 -1.3657037
0.09747693 0.15325037 1.3184861 1.3025609 0.29788432 0.7952375 0.016479472 0.04605909
0.6604684 -1.5472919 -1.830347 -0.21788715 -0.35469508 0.3388802 -0.689864 -0.8447238
0.090824924 0.03419053 0.04661446 -2.2892559 0.32471958 -0.45759374 -1.7398579 -1.2523998
-0.04771606 1.4909999 -1.292646 -1.269109 -0.68878007 0.08633898 0.058116768 -1.5328631
0.098091856 -1.2576133 -1.745982 -1.7840949 2.1793835 -2.6045034 0.6735973 -1.0118612
1.2368337 -0.4352785 -0.24240941 -0.7098704 0.0047827736 0.3952196 -0.8601035 1.0179745
-1.5067858 0.08613534 1.1525708 -0.07573031 0.9895709 -1.6627536 -0.00220548 -0.5023582
-1.2925657 0.85566294 0.7922612 0.83846277 -1.3835394 1.6621197 0.08059339 0.4488153
1.176257 0.22830816 -1.9078313 1.2350465 0.26594555 0.18614233 0.44196874 -0.81402576
0.47056052 0.05056163 -1.0715923 1.6498522 0.46692222 -0.2549586 0.10335413 -0.20307691
-0.20227762 0.12929328 -0.46052307 0.16421823 -1.3330753 0.25727764 -1.5908709 -0.9787092
0.535301 1.4119205 1.0471015 0.6141651 0.91380286 -0.7520673 -0.968529 1.1158503
00000000: 6112 2dbf 7530 a83d c3b5 ecbd f089 41bf
00000010: d772 fe3d 9caf 123e ae5b bcbf 1d44 fc3e
00000020: 86c1 253f e9da 1d3b 3600 3d3f 1e35 163f
00000030: b424 22bf 884c 493f bfc3 adbe 9805 adbf
00000040: 83f8 5e3f cc2b c3bf 86af 70be e71e 08bf
00000050: 96f9 bb3f b32d 7abf f39d a5bd 8b69 85bf
00000060: 97f3 d23f bd33 11bf c646 0140 3797 b63d
00000070: f1ec ecbf f260 2dbf e29e 4dbe 61cf aebf
00000080: fca1 c73d aaed 1c3e 27c4 a83f 51ba a63f
00000090: 4b84 983e af94 4b3f f5ff 863c 75a8 3c3d
000000a0: 7514 293f a90d c6bf cf48 eabf cf1d 5fbe
000000b0: 989a b5be b581 ad3e ed9a 30bf d23f 58bf
000000c0: 6b02 ba3d 5f0b 0c3d ceee 3e3d 2b83 12c0
000000d0: a541 a63e ba49 eabe aab3 debf a34e a0bf
000000e0: ea71 43bd 16d9 be3f 6d75 a5bf 2a72 a2bf
000000f0: e453 30bf 7ed2 b03d d90b 6e3d dc34 c4bf
00000100: 62e4 c83d 79f9 a0bf 577c dfbf 395d e4bf
00000110: 057b 0b40 2fb0 26c0 df70 2c3f ab84 81bf
00000120: 9150 9e3f d3dc debe 2c3a 78be 11ba 35bf
00000130: d0b8 9c3b 395a ca3e be2f 5cbf fd4c 823f
00000140: 5bde c0bf ba67 b03d 7187 933f 7e18 9bbd
00000150: 8554 7d3f 1cd5 d4bf d089 10bb 8c9a 00bf
00000160: cb72 a5bf ba0c 5b3f a1d1 4a3f 7fa5 563f
00000170: d217 b1bf 57c0 d43f 260e a53d 1ecb e53e
00000180: 978f 963f 9dc9 693e d133 f4bf 0116 9e3f
00000190: 042a 883e 189c 3e3e ba49 e23e fe63 50bf
000001a0: 4fed f03e b619 4f3d f029 89bf 5b2e d33f
000001b0: 6e10 ef3e ef89 82be 55ab d33d 65f3 4fbe
000001c0: dd21 4fbe 7565 043e aec9 ebbe d328 283e
000001d0: 36a2 aabf e5b9 833e a8a1 cbbf b08c 7abf
000001e0: 7d09 093f d0b9 b43f 6c07 863f ed39 1d3f
000001f0: fcee 693f 7c87 40bf 84f1 77bf 2fd4 8e3f

network_body._body_endoder.seq_layers.0.bias f4 [128]
0.0 0.0 0.0 0.0 0.0 0.0 0.0 0.0
0.0 0.0 0.0 0.0 0.0 0.0 0.0 0.0
0.0 0.0 0.0 0.0 0.0 0.0 0.0 0.0
0.0 0.0 0.0 0.0 0.0 0.0 0.0 0.0
0.0 0.0 0.0 0.0 0.0 0.0 0.0 0.0
0.0 0.0 0.0 0.0 0.0 0.0 0.0 0.0
0.0 0.0 0.0 0.0 0.0 0.0 0.0 0.0
0.0 0.0 0.0 0.0 0.0 0.0 0.0 0.0
0.0 0.0 0.0 0.0 0.0 0.0 0.0 0.0
0.0 0.0 0.0 0.0 0.0 0.0 0.0 0.0
0.0 0.0 0.0 0.0 0.0 0.0 0.0 0.0
0.0 0.0 0.0 0.0 0.0 0.0 0.0 0.0
0.0 0.0 0.0 0.0 0.0 0.0 0.0 0.0
0.0 0.0 0.0 0.0 0.0 0.0 0.0 0.0
0.0 0.0 0.0 0.0 0.0 0.0 0.0 0.0
0.0 0.0 0.0 0.0 0.0 0.0 0.0 0.0
00000000: 0000 0000 0000 0000 0000 0000 0000 0000
00000010: 0000 0000 0000 0000 0000 0000 0000 0000
00000020: 0000 0000 0000 0000 0000 0000 0000 0000
00000030: 0000 0000 0000 0000 0000 0000 0000 0000
00000040: 0000 0000 0000 0000 0000 0000 0000 0000
00000050: 0000 0000 0000 0000 0000 0000 0000 0000
00000060: 0000 0000 0000 0000 0000 0000 0000 0000
00000070: 0000 0000 0000 0000 0000 0000 0000 0000
00000080: 0000 0000 0000 0000 0000 0000 0000 0000
00000090: 0000 0000 0000 0000 0000 0000 0000 0000
000000a0: 0000 0000 0000 0000 0000 0000 0000 0000
000000b0: 0000 0000 0000 0000 0000 0000 0000 0000
000000c0: 0000 0000 0000 0000 0000 0000 0000 0000
000000d0: 0000 0000 0000 0000 0000 0000 0000 0000
000000e0: 0000 0000 0000 0000 0000 0000 0000 0000
000000f0: 0000 0000 0000 0000 0000 0000 0000 0000
00000100: 0000 0000 0000 0000 0000 0000 0000 0000
00000110: 0000 0000 0000 0000 0000 0000 0000 0000
00000120: 0000 0000 0000 0000 0000 0000 0000 0000
00000130: 0000 0000 0000 0000 0000 0000 0000 0000
00000140: 0000 0000 0000 0000 0000 0000 0000 0000
00000150: 0000 0000 0000 0000 0000 0000 0000 0000
00000160: 0000 0000 0000 0000 0000 0000 0000 0000
00000170: 0000 0000 0000 0000 0000 0000 0000 0000
00000180: 0000 0000 0000 0000 0000 0000 0000 0000
00000190: 0000 0000 0000 0000 0000 0000 0000 0000
000001a0: 0000 0000 0000 0000 0000 0000 0000 0000
000001b0: 0000 0000 0000 0000 0000 0000 0000 0000
000001c0: 0000 0000 0000 0000 0000 0000 0000 0000
000001d0: 0000 0000 0000 0000 0000 0000 0000 0000
000001e0: 0000 0000 0000 0000 0000 0000 0000 0000
000001f0: 0000 0000 0000 0000 0000 0000 0000 0000

network_body._body_endoder.seq_layers.2.weight f4 [128, 128]
-0.07690942 0.0425163 -0.0661564 -0.015937313 0.023506382 -0.025078649 0.13855779 -0.07666545
-0.09963094 0.07777548 0.015689237 0.06100165 0.05006077 -0.011518494 -0.03263318 0.021262888
0.03239434 -0.10104666 0.055592056 0.03409778 0.034900054 0.002880666 -0.025216678 0.12200786
-0.0584462 -0.0682148 -0.03148255 -0.014775145 0.011936204 -0.011018722 0.075286075 0.056771826
-0.02359839 -0.11814574 -0.036454946 0.16714239 0.021856554 -0.10801693 0.034654096 -0.06538599
0.051089704 0.08665499 0.061229993 0.06837812 -0.014072023 -0.09777581 0.10809577 -0.034513786
0.23101161 0.009738484 -0.050494015 0.13225912 0.10114078 0.074783325 -0.0469465 -0.095830366
-0.06636564 -0.014343524 0.07692354 0.06505573 -0.05181195 0.08682045 -0.024068795 -0.058416005
-0.016667841 -0.07731612 -0.055930365 -0.08996684 -0.011009104 -0.029819708 -3.859269e-05 -0.2510809
-0.031440176 0.11477389 -0.013758425 0.048924297 -0.11543501 0.00611579 -0.13999008 0.14602357
0.024681162 0.21451205 0.10571869 0.014349222 -0.09669115 -0.015628688 -0.13442434 -0.079595685
-0.18162447 -0.022546804 -0.18110576 -0.06688923 -0.04372309 -0.01148285 -0.0074475138 0.027686564
0.08792256 0.04275468 -0.10007722 0.015121992 0.090085454 0.121832326 -0.08030287 -0.18410061
-0.10491315 -0.0038092686 -0.04330047 -0.06698655 0.20291354 -0.054534774 0.13009839 -0.082394294
-0.091912284 -0.09397102 -0.0021608288 0.048296385 0.068281 0.10114887 -0.12041811 0.05879298
-0.15833136 -0.016679788 0.014853274 -0.107847765 0.12015087 0.01400338 0.029704206 0.0036638186
-0.00089624233 -0.04883257 -0.054291114 0.15917553 0.09283553 -0.07192613 -0.011041548 0.06195289
0.07398224 -0.13400008 -0.12767683 -0.0042244187 0.01383047 0.011028675 0.056740053 -0.012396861
-0.002670193 0.06644476 -0.059231903 0.11560235 -0.07608465 -0.068585336 0.029850231 -0.024231901
-0.02206489 0.060869236 -0.12318567 -0.0050824154 -0.034389418 -0.0048057437 -0.016339255 -0.14918123
-0.14035624 -0.005370964 -0.018438693 -0.003956494 0.12545718 0.06195495 -0.07160661 0.020945402
-0.015677514 -0.024423812 0.07385301 -0.0279254 0.051197536 -0.01332655 0.015433218 0.0914356
0.01729071 -0.06343475 -0.013199975 0.18835527 -0.076497905 0.15317021 0.083699666 0.063761845
-0.025776185 0.11117807 -0.058908954 0.106594846 -0.068723135 0.056665234 0.045993015 0.06886108
-0.052049275 -0.18969995 -0.15014188 0.060336195 0.02655497 0.08550013 0.0512312 0.06231112
0.12603305 0.06836077 -0.023312075 -0.040458784 -0.11655901 0.073768124 -0.066207446 0.023569362
-0.11743609 0.0071741897 0.06851164 0.049078204 0.0097960085 -0.04465895 -0.14228353 -0.010966842
-0.17615712 -0.05126304 0.03444938 0.07714686 -0.009254124 0.08664562 0.05641497 0.15319665
-0.030853275 -0.074708536 -0.07236747 0.05998967 0.057416767 0.011105015 -0.047321122 0.04461738
-0.04720444 0.1272388 0.048447438 -0.053883284 0.087026216 0.10913006 -0.14499852 0.0722165
0.09152023 0.033641465 -0.0073101725 0.058182538 -0.099176444 -0.058015283 0.054792766 -0.16592255
-0.18384175 0.08462465 0.062497742 0.010577988 0.08416001 -0.023443181 0.07241283 -0.15918782
00000000: b082 9dbd 9225 2e3d 027d 87bd f88e 82bc
00000010: 7590 c03c bd71 cdbc 18e2 0d3e c702 9dbd
00000020: 4e0b ccbd c048 9f3d b786 803c dedc 793d
00000030: 860c 4d3d 11b8 3cbc 5faa 05bd 822f ae3c
00000040: edaf 043d 8df1 cebd 7fb4 633d 1daa 0b3d
00000050: 5cf3 0e3d 8ec9 3c3b 3593 cebc 42df f93d
00000060: 4865 6fbd 33b4 8bbd d9f3 00bd 7313 72bc
00000070: 1190 433c df87 34bc 962f 9a3d 9389 683d
00000080: 6951 c1bc 65f6 f1bd c851 15bd 6027 2b3e
00000090: 840c b33c fb37 ddbd 74f1 0d3d 17e9 85bd
000000a0: 7043 513d 2c78 b13d 4dcc 7a3d d409 8c3d
000000b0: 588e 66bc af3e c8bd 5161 dd3d 545e 0dbd
000000c0: 4f8e 6c3e 2a8e 1f3c d0d2 4ebd ef6e 073e
000000d0: e622 cf3d 0028 993d f94a 40bd b642 c4bd
000000e0: b5ea 87bd 1a01 6bbc 178a 9d3d f03b 853d
000000f0: c438 54bd ecce b13d ec2b c5bc 9f45 6fbd
00000100: ff8a 88bc ea57 9ebd 3d17 65bd 8940 b8bd
00000110: 875f 34bc 7648 f4bc 96de 21b8 ad8d 80be
00000120: 6ac7 00bd 930e eb3d 046b 61bc d864 483d
00000130: 3169 ecbd f766 c83b 8f59 0fbe 3487 153e
00000140: 2630 ca3c 0ca9 5b3e 0a83 d83d 0019 6b3c
00000150: 0206 c6bd bc07 80bc 89a6 09be 1003 a3bd
00000160: c4fb 39be 13b4 b8bc ca73 39be 38fd 88bd
00000170: fc16 33bd 9022 3cbc 460a f4bb efce e23c
00000180: be10 b43d 881f 2f3d 49f5 ccbd 3bc2 773c
00000190: b97e b83d 3a83 f93d d575 a4bd df84 3cbe
000001a0: b5dc d6bd eca4 79bb d55b 31bd 3f30 89bd
000001b0: 91c8 4f3e db5f 5fbd 8338 053e 57be a8bd
000001c0: 823c bcbd e173 c0bd b19c 0dbb 6ed2 453d
000001d0: e9d6 8b3d 2427 cf3d c59d f6bd e8d0 703d
000001e0: 9e21 22be 0da4 88bc 265b 733c 4adf dcbd
000001f0: a911 f63d 6f6e 653c 3c56 f33c ad1c 703b
00000200: cef1 6aba a904 48bd 5c60 5ebd e9fe 223e
00000210: 8e20 be3d 024e 93bd 9ce7 34bc 50c2 7d3d
00000220: 0084 973d 5137 09be b7bd 02be fe6c 8abb
00000230: 3299 623c 9eb1 343c 4268 683d 341c 4bbc
00000240: 68fe 2ebb 3114 883d 279d 72bd edc0 ec3d
00000250: 45d2 9bbd 7876 8cbd 7988 f43c fb81 c6bc
00000260: 6ec1 b4bc 0552 793d c548 fcbd 648a a6bb
00000270: ebdb 0cbd 8079 9dbb e7d9 85bc f7c2 18be
00000280: 8cb9 0fbe e9fe afbb be0c 97bc 7aa5 81bb
00000290: d977 003e 79c4 7d3d 7da6 92bd b195 ab3c
000002a0: 216e 80bc 7214 c8bc 3f40 973d cfc3 e4bc
000002b0: 82b4 513d 9a57 5abc 9cdb 7c3c 9642 bb3d
000002c0: 3fa5 8d3c 14ea 81bd b544 58bc 34e0 403e
000002d0: efaa 9cbd a7d8 1c3e bb6a ab3d 9295 823d
000002e0: 9428 d3bc 54b1 e33d 844a 71bd 664e da3d
000002f0: b7be 8cbd ce19 683d 2c63 3c3d 0a07 8d3d
00000300: 9f31 55bd b440 42be cbbe 19be 1623 773d
00000310: cf89 d93c b11a af3d cfd7 513d f239 7f3d
00000320: cf0e 013e bb00 8c3d f7f8 bebc 1cb8 25bd
00000330: 7eb6 eebd be13 973d c597 87bd 8914 c13c
00000340: 5582 f0bd 7715 eb3b d54f 8c3d 3a06 493d
00000350: 707f 203c 4eec 36bd c6b2 11be 45ae 33bc
00000360: 8862 34be 32f9 51bd cb1a 0d3d 2cff 9d3d
00000370: 9c9e 17bc 4273 b13d 6213 673d 95df 1c3e
00000380: 02c0 fcbc ca00 99bd 6535 94bd bab7 753d
00000390: d82d 6b3d cff1 353c cbd3 41bd b7c0 363d
000003a0: 7159 41bd e34a 023e d270 463d b8b4 5cbd
000003b0: cd3a b23d 957f df3d 7e7a 14be 3fe6 933d
000003c0: f56e bb3d a2cb 093d 2c8a efbb d050 6e3d
000003d0: 051d cbbd 6fa1 6dbd 616e 603d 9ae7 29be
000003e0: 0341 3cbe b04f ad3d a2fd 7f3d 4c4f 2d3c
000003f0: 155c ac3d ea0b c0bc 2e4d 943d 2202 23be

network_body._body_endoder.seq_layers.2.bias f4 [128]
0.0 0.0 0.0 0.0 0.0 0.0 0.0 0.0
0.0 0.0 0.0 0.0 0.0 0.0 0.0 0.0
0.0 0.0 0.0 0.0 0.0 0.0 0.0 0.0
0.0 0.0 0.0 0.0 0.0 0.0 0.0 0.0
0.0 0.0 0.0 0.0 0.0 0.0 0.0 0.0
0.0 0.0 0.0 0.0 0.0 0.0 0.0 0.0
0.0 0.0 0.0 0.0 0.0 0.0 0.0 0.0
0.0 0.0 0.0 0.0 0.0 0.0 0.0 0.0
0.0 0.0 0.0 0.0 0.0 0.0 0.0 0.0
0.0 0.0 0.0 0.0 0.0 0.0 0.0 0.0
0.0 0.0 0.0 0.0 0.0 0.0 0.0 0.0
0.0 0.0 0.0 0.0 0.0 0.0 0.0 0.0
0.0 0.0 0.0 0.0 0.0 0.0 0.0 0.0
0.0 0.0 0.0 0.0 0.0 0.0 0.0 0.0
0.0 0.0 0.0 0.0 0.0 0.0 0.0 0.0
0.0 0.0 0.0 0.0 0.0 0.0 0.0 0.0
00000000: 0000 0000 0000 0000 0000 0000 0000 0000
00000010: 0000 0000 0000 0000 0000 0000 0000 0000
00000020: 0000 0000 0000 0000 0000 0000 0000 0000
00000030: 0000 0000 0000 0000 0000 0000 0000 0000
00000040: 0000 0000 0000 0000 0000 0000 0000 0000
00000050: 0000 0000 0000 0000 0000 0000 0000 0000
00000060: 0000 0000 0000 0000 0000 0000 0000 0000
00000070: 0000 0000 0000 0000 0000 0000 0000 0000
00000080: 0000 0000 0000 0000 0000 0000 0000 0000
00000090: 0000 0000 0000 0000 0000 0000 0000 0000
000000a0: 0000 0000 0000 0000 0000 0000 0000 0000
000000b0: 0000 0000 0000 0000 0000 0000 0000 0000
000000c0: 0000 0000 0000 0000 0000 0000 0000 0000
000000d0: 0000 0000 0000 0000 0000 0000 0000 0000
000000e0: 0000 0000 0000 0000 0000 0000 0000 0000
000000f0: 0000 0000 0000 0000 0000 0000 0000 0000
00000100: 0000 0000 0000 0000 0000 0000 0000 0000
00000110: 0000 0000 0000 0000 0000 0000 0000 0000
00000120: 0000 0000 0000 0000 0000 0000 0000 0000
00000130: 0000 0000 0000 0000 0000 0000 0000 0000
00000140: 0000 0000 0000 0000 0000 0000 0000 0000
00000150: 0000 0000 0000 0000 0000 0000 0000 0000
00000160: 0000 0000 0000 0000 0000 0000 0000 0000
00000170: 0000 0000 0000 0000 0000 0000 0000 0000
00000180: 0000 0000 0000 0000 0000 0000 0000 0000
00000190: 0000 0000 0000 0000 0000 0000 0000 0000
000001a0: 0000 0000 0000 0000 0000 0000 0000 0000
000001b0: 0000 0000 0000 0000 0000 0000 0000 0000
000001c0: 0000 0000 0000 0000 0000 0000 0000 0000
000001d0: 0000 0000 0000 0000 0000 0000 0000 0000
000001e0: 0000 0000 0000 0000 0000 0000 0000 0000
000001f0: 0000 0000 0000 0000 0000 0000 0000 0000

value_heads.value_heads.extrinsic.weight f4 [1, 128]
-0.05988368 -0.20451172 0.16858388 -0.107322775 0.012106706 0.15409225 -0.05780752 -0.13177925
-0.20124766 0.073251225 -0.09786421 0.008102298 -0.18150358 0.01854399 -0.0029371632 -0.1313566
-0.09382612 0.15238878 0.13626358 0.18933366 -0.08118149 -0.051284794 0.1883396 0.099756494
0.116196305 0.13214776 0.016640909 -0.1436644 -0.20750156 0.06090534 -0.015000691 -0.1630791
-0.17463392 0.12040667 0.14193346 0.12763198 -0.16007207 -0.18556058 -0.05430199 0.07439724
-0.07820982 -0.17867798 -0.01705029 0.1951416 -0.0148280915 -0.06356717 0.2043194 0.11259306
-0.11262921 0.062194075 -0.20834151 -0.0015283172 0.06333261 0.002252935 0.1651156 -0.14076374
-0.13103536 0.1545776 0.17570385 0.20399585 -0.12466517 0.08057733 -0.10729893 0.118499786
0.15509379 -0.07600112 -0.21414849 -0.070459485 0.07574218 0.12640518 -0.08897846 0.1913852
-0.027361304 -0.066801086 0.14337912 0.09296452 0.1026371 0.16642693 -0.037754934 -0.052813523
0.20486622 0.04659982 -0.15872154 -0.08759066 0.08963681 0.0091814725 0.20007196 0.019382706
-0.15365778 -0.12812778 0.19826531 -0.0010745989 0.027576117 -0.10548702 -0.19094054 0.06592933
-0.205278 -0.07861648 -0.112887815 0.07869394 -0.084822685 0.20649248 0.034685828 0.20016901
0.16656211 0.16753654 -0.044598397 -0.059841607 0.104404226 0.11414365 0.016042652 0.12085057
0.07088221 0.08047143 -0.08138718 -0.19836205 -0.07662461 0.114099346 0.12629807 -0.090295635
0.12775086 0.19514482 0.15671995 -0.06412557 -0.01430159 -0.0392891 0.12669538 0.033648998
00000000: 9748 75bd 856b 51be 41a1 2c3e 0bcc dbbd
00000010: 355b 463c 5cca 1d3e 94c7 6cbd 24f1 06be
00000020: de13 4ebe bd04 963d 086d c8bd 80bf 043c
00000030: 13dc 39be 91e9 973c 6c7d 40bb 5882 06be
00000040: e927 c0bd ce0b 1c3e ae88 0b3e afe0 413e
00000050: 7b42 a6bd 0110 52bd 19dc 403e 224d cc3d
00000060: 54f8 ed3d be51 073e 8452 883c c31c 13be
00000070: 4a7b 54be e177 793d 75c5 75bc 35fe 26be
00000080: 3cd3 32be c697 f63d 0157 113e f5b1 023e
00000090: efe9 23be 9803 3ebe c36b 5ebd 955d 983d
000000a0: 782c a0bd 5cf7 36be 0dad 8bbc 33d3 473e
000000b0: 86f1 72bc 812f 82bd 1b39 513e 3197 e63d
000000c0: 25aa e6bd 37bf 7e3d 7a57 55be d151 c8ba
000000d0: 87b4 813d faa5 133b 1014 293e 5f24 10be
000000e0: 222e 06be 9749 1e3e b6eb 333e 4ae4 503e
000000f0: 7450 ffbd ba05 a53d 8bbf dbbd 04b0 f23d
00000100: e8d0 1e3e 7aa6 9bbd be49 5bbe 104d 90bd
00000110: b71e 9b3d 5c70 013e 573a b6bd 7bfa 433e
00000120: d024 e0bc 02cf 88bd fad1 123e 2f64 be3d
00000130: 6633 d23d d26b 2a3e eba4 1abd fe52 58bd
00000140: 73c8 513e 74df 3e3d e687 22be bb62 b3bd
00000150: 8193 b73d e36d 163c aadf 4c3e 7bc8 9e3c
00000160: 7758 1dbe ee33 03be 1006 4b3e 8ed9 8cba
00000170: 4fe7 e13c 9409 d8bd eb85 43be f505 873d
00000180: 6534 52be ad01 a1bd ba31 e7bd 4a2a a13d
00000190: 84b7 adbd c472 533e ba12 0e3d 1bf9 4c3e
000001a0: 428f 2a3e b38e 2b3e cfac 36bd 791c 75bd
000001b0: e2d1 d53d 25c4 e93d e16b 833c 8180 f73d
000001c0: b12a 913d 35ce a43d 52ae a6bd 6c1f 4bbe
000001d0: 5ded 9cbd ebac e93d 4854 013e ebec b8bd
000001e0: 1fd1 023e 0bd4 473e 327b 203e 4454 83bd
000001f0: 3751 6abc 9bed 20bd 6fbc 013e 88d3 093d
