results/tessting/My Behavior.onnx (onnx, 72101 bytes, 4 tensors)

network_body._body_endoder.seq_layers.0.weight f4 [128, 1]
0	0x3fa13bbd	1.2596356
1	0x3ec03373	0.37539253
2	0xbfa8aa2f	-1.3176936
3	0xbe26ff46	-0.16308317
4	0xbee3adb4	-0.44468462
5	0xbebdce82	-0.37071615
6	0x3feb641c	1.8389926
7	0x40034505	2.0510876
8	0xbd9d232a	-0.07672723
9	0x3e9b1539	0.3028963
10	0xbf78fe25	-0.97262794
11	0x3f13ea31	0.5777922
12	0xbe831f3f	-0.25609776
13	0xbc1c13d0	-0.009526208
14	0x3fee497e	1.8616178
15	0x403b54a0	2.92704
16	0xbfe43963	-1.7830013
17	0x3f534234	0.8252289
18	0x3e9c4d97	0.30527946
19	0xbf333c4a	-0.7001387
20	0xbf2b689a	-0.66956484
21	0x401d5d4f	2.45882
22	0xbf9fb8e9	-1.2478305
23	0x3f491846	0.78552663
24	0xbe91807c	-0.28418338
25	0xbe928b89	-0.28622082
26	0x3f5a91c2	0.8537866
27	0x3fcf8c03	1.6214603
28	0xbe59dc69	-0.21275486
29	0xbfc4319f	-1.5327643
30	0x3edf68fc	0.43634784
31	0xbd570c4a	-0.052501954
32	0x3f70856a	0.93953574
33	0x3e059426	0.13044795
34	0xbcd75ed0	-0.026290327
35	0xbfd5bc8e	-1.6698167
36	0xbd19db94	-0.03756292
37	0x3ef2e42e	0.47439712
38	0x3f9ef4c9	1.2418453
39	0xbfd49c50	-1.6610203
40	0x3f0a95f1	0.5413504
41	0x3f9ace42	1.2094195
42	0xbee75a62	-0.45186144
43	0x3eab335b	0.3343762
44	0xbff0fd11	-1.882723
45	0x3e830990	0.25593233
46	0xbf39323e	-0.7234229
47	0xbf9666f7	-1.1750172
48	0x3f02b88f	0.51062864
49	0x3f01c4e2	0.50691044
50	0x3f4dff33	0.8046753
51	0x4007cde7	2.1219423
52	0xbfd5ef68	-1.6713686
53	0xbff6c81c	-1.9279819
54	0xbf355855	-0.7083791
55	0x3f089441	0.5335122
56	0xbf82b1d7	-1.0210522
57	0xbed0a5ed	-0.4075159
58	0x3fca6f16	1.5815151
59	0xbfa2ea14	-1.2727685
60	0xbf1dadf5	-0.6159356
61	0x3f4dba9d	0.80362874
62	0xbf599505	-0.8499301
63	0x3fa5f973	1.2966751
64	0xbfa181b2	-1.2617705
65	0x3f683136	0.9070009
66	0x3f2f5626	0.6849083
67	0xbf9032c0	-1.1265488
68	0xbf416ac8	-0.7555356
69	0xbea05d3d	-0.31321135
70	0x3ecb632d	0.39724103
71	0xbfa68d32	-1.3011839
72	0xbf2903b9	-0.66021305
73	0xbffa4649	-1.9552699
74	0xbf4199ea	-0.7562548
75	0xbeaa2080	-0.3322792
76	0x3fa192af	1.2622889
77	0x3f0eb458	0.5574393
78	0xbec70fce	-0.38879246
79	0x3f26c147	0.6513867
80	0xbfae099d	-1.3596684
81	0x3da8a1c3	0.082339786
82	0x3f11ff82	0.570305
83	0x3ee4309f	0.44568345
84	0xbfaabc28	-1.3338671
85	0x3d0e5226	0.03474631
86	0x3fe6e2db	1.8037981
87	0xbdec4419	-0.11536426
88	0x3f1ad127	0.6047539
89	0x3eb25d20	0.34836674
90	0x3f1d0c3e	0.61346805
91	0xc002407b	-2.0351856
92	0x3f0220bb	0.5083119
93	0x3e46a628	0.19399321
94	0x3f05f6dd	0.5232981
95	0xbf6e0867	-0.9298157
96	0x3f6d52d6	0.9270452
97	0x3e64634b	0.22303502
98	0x3e56ea54	0.20987827
99	0xbf01b2ac	-0.50663257
100	0xbf68db6d	-0.9095982
101	0x3f180f5b	0.5939843
102	0x3e5278d9	0.20553912
103	0xbe72741e	-0.23677108
104	0xbf8aabfe	-1.0833738
105	0x3e1d4f20	0.15362215
106	0xbfb5e9e0	-1.4211998
107	0x3fe1a3df	1.7628134
108	0xbecceafb	-0.40023026
109	0x3f739967	0.9515595
110	0xbfc6c915	-1.5530115
111	0xbf0bdfb9	-0.5463825
112	0xbf85f0d7	-1.0464123
113	0x3f75cfea	0.96020377
114	0x3f8e969f	1.1139716
115	0x3f381021	0.7189961
116	0x3f3083f2	0.6895133
117	0x3f8b953c	1.0904918
118	0xbfa6462a	-1.2990162
119	0x3eef85d4	0.4678179
120	0xbf485080	-0.78247833
121	0x3e60e655	0.21962865
122	0x3ffb1d2e	1.961828
123	0x3f9d2a1c	1.2278476
124	0xbe3d21a5	-0.18469866
125	0xbf16d01a	-0.5891129
126	0x3fe4ac9e	1.7865179
127	0x3d025342	0.031817682

network_body._body_endoder.seq_layers.0.bias f4 [128]
0	0x00000000	0.0
1	0x00000000	0.0
2	0x00000000	0.0
3	0x00000000	0.0
4	0x00000000	0.0
5	0x00000000	0.0
6	0x00000000	0.0
7	0x00000000	0.0
8	0x00000000	0.0
9	0x00000000	0.0
10	0x00000000	0.0
11	0x00000000	0.0
12	0x00000000	0.0
13	0x00000000	0.0
14	0x00000000	0.0
15	0x00000000	0.0
16	0x00000000	0.0
17	0x00000000	0.0
18	0x00000000	0.0
19	0x00000000	0.0
20	0x00000000	0.0
21	0x00000000	0.0
22	0x00000000	0.0
23	0x00000000	0.0
24	0x00000000	0.0
25	0x00000000	0.0
26	0x00000000	0.0
27	0x00000000	0.0
28	0x00000000	0.0
29	0x00000000	0.0
30	0x00000000	0.0
31	0x00000000	0.0
32	0x00000000	0.0
33	0x00000000	0.0
34	0x00000000	0.0
35	0x00000000	0.0
36	0x00000000	0.0
37	0x00000000	0.0
38	0x00000000	0.0
39	0x00000000	0.0
40	0x00000000	0.0
41	0x00000000	0.0
42	0x00000000	0.0
43	0x00000000	0.0
44	0x00000000	0.0
45	0x00000000	0.0
46	0x00000000	0.0
47	0x00000000	0.0
48	0x00000000	0.0
49	0x00000000	0.0
50	0x00000000	0.0
51	0x00000000	0.0
52	0x00000000	0.0
53	0x00000000	0.0
54	0x00000000	0.0
55	0x00000000	0.0
56	0x00000000	0.0
57	0x00000000	0.0
58	0x00000000	0.0
59	0x00000000	0.0
60	0x00000000	0.0
61	0x00000000	0.0
62	0x00000000	0.0
63	0x00000000	0.0
64	0x00000000	0.0
65	0x00000000	0.0
66	0x00000000	0.0
67	0x00000000	0.0
68	0x00000000	0.0
69	0x00000000	0.0
70	0x00000000	0.0
71	0x00000000	0.0
72	0x00000000	0.0
73	0x00000000	0.0
74	0x00000000	0.0
75	0x00000000	0.0
76	0x00000000	0.0
77	0x00000000	0.0
78	0x00000000	0.0
79	0x00000000	0.0
80	0x00000000	0.0
81	0x00000000	0.0
82	0x00000000	0.0
83	0x00000000	0.0
84	0x00000000	0.0
85	0x00000000	0.0
86	0x00000000	0.0
87	0x00000000	0.0
88	0x00000000	0.0
89	0x00000000	0.0
90	0x00000000	0.0
91	0x00000000	0.0
92	0x00000000	0.0
93	0x00000000	0.0
94	0x00000000	0.0
95	0x00000000	0.0
96	0x00000000	0.0
97	0x00000000	0.0
98	0x00000000	0.0
99	0x00000000	0.0
100	0x00000000	0.0
101	0x00000000	0.0
102	0x00000000	0.0
103	0x00000000	0.0
104	0x00000000	0.0
105	0x00000000	0.0
106	0x00000000	0.0
107	0x00000000	0.0
108	0x00000000	0.0
109	0x00000000	0.0
110	0x00000000	0.0
111	0x00000000	0.0
112	0x00000000	0.0
113	0x00000000	0.0
114	0x00000000	0.0
115	0x00000000	0.0
116	0x00000000	0.0
117	0x00000000	0.0
118	0x00000000	0.0
119	0x00000000	0.0
120	0x00000000	0.0
121	0x00000000	0.0
122	0x00000000	0.0
123	0x00000000	0.0
124	0x00000000	0.0
125	0x00000000	0.0
126	0x00000000	0.0
127	0x00000000	0.0

network_body._body_endoder.seq_layers.2.weight f4 [128, 128]
0	0xbb00ec9f	-0.0019672287
1	0xbe26895f	-0.1626334
2	0xbd3a7cea	-0.045529284
3	0xbe01284d	-0.1261303
4	0xbd01cc64	-0.031689063
5	0x3d188a98	0.03724155
6	0xbd71d44c	-0.059040353
7	0x3c1e0521	0.0096447775
8	0xbcfc6032	-0.030807588
9	0x3d38205f	0.044952746
10	0x3d97d435	0.07413522
11	0x3db19397	0.08670729
12	0xbe49b8cf	-0.19699405
13	0xbd019d37	-0.031644072
14	0xbd763b53	-0.06011517
15	0x3dcaefbb	0.09909006
16	0xbd0c0d30	-0.034192264
17	0xbdb74174	-0.08948031
18	0x3e01a1bc	0.12659353
19	0xbe5bd0f9	-0.21466435
20	0xbc1f9623	-0.009740385
21	0x3b6d73dc	0.0036232388
22	0x3ccd7420	0.025079787
23	0xbd797ac2	-0.060908087
24	0xbdf35ab4	-0.118825346
25	0xbd8cc9dc	-0.06874439
26	0x3d762bc4	0.060100332
27	0xbd49d550	-0.049275696
28	0x3e3be26d	0.18348093
29	0x3c279eb5	0.01023071
30	0xbd910459	-0.070809074
31	0xbdcba1ef	-0.09942996
32	0xbc077f98	-0.008270167
33	0xbb5c8c74	-0.0033653053
34	0xbc58f1cc	-0.013241243
35	0x3d6d2fdc	0.05790697
36	0x3db99147	0.090609126
37	0x3e14187d	0.14462467
38	0xbccacd45	-0.024756083
39	0xbda684e1	-0.081308134
40	0x3d564c29	0.052318726
41	0x3d4819f7	0.048852887
42	0xbd85d2a8	-0.0653432
43	0xbdd741d7	-0.10510605
44	0x3cdf8336	0.027284246
45	0xbe62f119	-0.22162284
46	0x3d6ccbb5	0.057811458
47	0xbd44d3f4	-0.048053697
48	0x3cdf111d	0.02722984
49	0x3cc67324	0.024224825
50	0xbe09b428	-0.1344763
51	0x3d93b47e	0.072121605
52	0xbd92b60c	-0.07163629
53	0x3d028808	0.03186801
54	0x3c8679f3	0.016415572
55	0x3e59901c	0.2124638
56	0xbdc780a2	-0.09741332
57	0x3e0b95fe	0.13631436
58	0x3d954d03	0.072900794
59	0x3dc1d988	0.09465319
60	0x3d6da90c	0.058022544
61	0x3c9dbaea	0.019254167
62	0x3dab3ebf	0.08361577
63	0xbdf933d7	-0.12168091
64	0xbd66fe86	-0.056395076
65	0xbdd46958	-0.10371655
66	0x3e4b9999	0.19882812
67	0xbc19d10e	-0.009388221
68	0xbe5480db	-0.2075228
69	0x3e6470c0	0.22308636
70	0xbdae46b7	-0.085095815
71	0xbc390088	-0.011291631
72	0x3e667615	0.22505982
73	0x3c54f8de	0.012998788
74	0x3d779ba4	0.060451165
75	0xbd065151	-0.032792393
76	0xbdb0ea25	-0.086384095
77	0xbd869a37	-0.06572383
78	0xbdda7938	-0.10667652
79	0x3d150577	0.036382165
80	0x3e076e97	0.1322578
81	0xbc814d27	-0.01578386
82	0x3e33c0ec	0.17554063
83	0xbd1716a0	-0.03688681
84	0xbd0121cc	-0.03152637
85	0xbc8d6c42	-0.017263535
86	0x3c4eb5e5	0.012616609
87	0xbd1ab953	-0.037774395
88	0x3e2d50c6	0.16925344
89	0x3d51fea3	0.05126823
90	0x3d882c6b	0.06649097
91	0x3d33bafb	0.04387949
92	0xbe5d6403	-0.21620183
93	0xbd5aa1a9	-0.053376827
94	0xbc07750d	-0.008267653
95	0x3d862a4b	0.065510355
96	0xbd98c449	-0.074593134
97	0xbd7c39f9	-0.061578725
98	0xbe10debf	-0.14147471
99	0x3d0b4ca6	0.034008645
100	0xbe625076	-0.22101006
101	0x3e26bf0b	0.16283815
102	0x3dabf551	0.083964
103	0x3d7e08fb	0.062020283
104	0x3ce909a7	0.028446985
105	0x3db48b78	0.08815664
106	0xbdcf69bb	-0.10127588
107	0x3d4d5b40	0.05013585
108	0x3d80c475	0.06287471
109	0x3d367a3c	0.044550166
110	0x3988e804	0.00026112807
111	0xbc821d02	-0.015882973
112	0xbd1decc7	-0.038555887
113	0xbd9d7631	-0.07688559
114	0x3d4cc170	0.049989164
115	0xbc8cddf3	-0.017195677
116	0x3d2f374c	0.042777345
117	0x3cbf5ae7	0.023358775
118	0x3cc173b1	0.023614736
119	0xbb109e47	-0.0022066997
120	0xbdf35ca0	-0.11882901
121	0xbd8f568b	-0.06998929
122	0x3d2ed68f	0.042685088
123	0x3d32ad19	0.04362211
124	0xbd9dbf91	-0.07702554
125	0x3e0d4e01	0.13799287
126	0xbe25b1d6	-0.1618112
127	0xbe6230e0	-0.22088957
128	0xbc32dcaf	-0.010916873
129	0x3db6b3ff	0.0892105
130	0xbc291099	-0.010318899
131	0x3d1a923a	0.03773711
132	0xbdca7094	-0.09884754
133	0xbdbc3d45	-0.09191374
134	0xbddba539	-0.10724873
135	0xbce444b6	-0.027864795
136	0xbdee776d	-0.116438724
137	0xbe0db97e	-0.13840291
138	0xbdc78314	-0.09741798
139	0xbd8293e9	-0.06375868
140	0xbde9c616	-0.11414735
141	0xbd9d1198	-0.07669371
142	0xbe4bf7d4	-0.19918758
143	0xbd0aaa09	-0.033853564
144	0x3b746c5f	0.003729604
145	0xbc9789b0	-0.018498272
146	0xbcdf6f42	-0.027274732
147	0xbc8ee89e	-0.017444905
148	0x3dcc4783	0.09974577
149	0xbdc0f27e	-0.09421252
150	0x3c4a8eab	0.012363116
151	0xbd3bd1b8	-0.0458543
152	0xbe2c256b	-0.16811149
153	0xbd85cff4	-0.065338045
154	0xbd0a8a96	-0.033823572
155	0xbd69f678	-0.057119817
156	0xbb35fb9e	-0.0027768384
157	0x3d8c5589	0.06852252
158	0x3ab0f3b8	0.0013500368
159	0x3c6bbf3f	0.014388858
160	0xbd7ba945	-0.061440725
161	0x39b1f63a	0.00033943524
162	0x3e0ac736	0.13552555
163	0x3e210763	0.15725474
164	0x3d8f7b10	0.07005894
165	0x3e88134d	0.26577225
166	0xbdbfb078	-0.093598306
167	0x3be4223e	0.00696209
168	0x3d433f2e	0.047667675
169	0xbdd67efa	-0.104734376
170	0x3c0d1209	0.008610257
171	0x3c570b13	0.013125199
172	0xbd22220c	-0.03958325
173	0x3d45228c	0.04812865
174	0xbd473315	-0.0486327
175	0x3ca80b9f	0.020513354
176	0x3e0f69df	0.1400523
177	0xbc34f9e9	-0.011045911
178	0x3b667cef	0.003516968
179	0xbca75381	-0.02042556
180	0xbe8f069e	-0.27934736
181	0x3d93d1e1	0.072177656
182	0xbd6fad5f	-0.05851495
183	0x3d886ab5	0.06660978
184	0x3e0e0c8e	0.13871977
185	0x3e32e7d1	0.17471243
186	0xbda43191	-0.080172665
187	0xbdb1b959	-0.086779304
188	0x3d003d99	0.031308744
189	0xbc128337	-0.008942417
190	0x3d1825ed	0.037145544
191	0xbe00cc1d	-0.12577863
192	0xbc354fbf	-0.011066376
193	0xbc8b5843	-0.01700986
194	0xbd757f2d	-0.059935737
195	0x3db2bebd	0.08727787
196	0x3c08513d	0.00832015
197	0xbb178d11	-0.0023124854
198	0xb9b6f133	-0.00034893453
199	0x3ddffacc	0.109365076
200	0xbd117679	-0.035513375
201	0xbde595d8	-0.11210221
202	0xbe824ed9	-0.2545078
203	0x3d09ee1f	0.033674356
204	0x3e477d68	0.19481432
205	0xbcf2c3d9	-0.029634403
206	0xbd8ec75d	-0.06971619
207	0xbd88da05	-0.06682209
208	0x3daff703	0.085920356
209	0xbd5b6cca	-0.053570546
210	0x3d1f4150	0.038880646
211	0x3e008fb2	0.12554815
212	0x3e16d3e2	0.14729264
213	0xbe042c71	-0.12907578
214	0xbc59a135	-0.013283064
215	0x3dec7572	0.115458384
216	0x3d22f97f	0.03978872
217	0x3c9eaf09	0.019370573
218	0xbd9594a9	-0.07303745
219	0x3e0cb34c	0.13740271
220	0x3c0b27b8	0.008493356
221	0x3d0056ff	0.031332966
222	0xbd545d4f	-0.0518468
223	0xbd79d8ae	-0.060997657
224	0x3dc87db4	0.09789601
225	0xbd5d89f8	-0.054086655
226	0x3d85164e	0.06498395
227	0x3cd474ad	0.025934542
228	0x3c6abef4	0.014327753
229	0x3ba46515	0.0050169327
230	0x3d584d1f	0.052807923
231	0xbdb8a875	-0.09016506
232	0xbdf37d9f	-0.11889195
233	0x3b6a7eef	0.0035781225
234	0x3d337d72	0.043820806
235	0x3d83fed1	0.06445087
236	0xbd0681d9	-0.032838676
237	0x3da8df75	0.08245746
238	0xbde1d06a	-0.1102608
239	0x3c7759fc	0.015097138
240	0xbb6625b7	-0.0035117695
241	0xbd314840	-0.043281794
242	0x3d7a8e9b	0.061171155
243	0x3e3603f2	0.17774943
244	0x3c7bf7af	0.015378877
245	0xbce69dc8	-0.028151408
246	0x3bd78c3f	0.006577998
247	0xbd2c91eb	-0.042131346
248	0xbdbd63c7	-0.09247547
249	0xbc4be061	-0.012443633
250	0xbccccde5	-0.025000522
251	0x3bd596ed	0.006518236
252	0x3b19dbf8	0.002347706
253	0x3d4ff566	0.05077114
254	0xbe56e2ca	-0.2098495
255	0xbe1c1952	-0.15244034

action_model._discrete_distribution.branches.0.weight f4 [1, 128]
0	0xbb3862e9	-0.0028135127
1	0xbab5f0e9	-0.0013881001
2	0xbb8b3b97	-0.004249047
3	0xbc7a99f0	-0.015295491
4	0x3b40e586	0.0029433682
5	0x3b6231b5	0.003451449
6	0xbab54a73	-0.0013831392
7	0x3bb84ba8	0.0056242533
8	0xbc2170a5	-0.009853517
9	0xbc616e0f	-0.01375915
10	0xbc18ecb2	-0.009333776
11	0x3c77c8e8	0.015123583
12	0xbb47b0d7	-0.0030470395
13	0x3abf1e27	0.001458113
14	0x3c2fac45	0.010722225
15	0x3bb65ee6	0.005565512
16	0x3af5c0d3	0.0018749483
17	0xbbc3a4d3	-0.0059705763
18	0x3c06f41a	0.008236909
19	0xbb1a7deb	-0.0023573588
20	0x3b770b85	0.0037696075
21	0xbac53c44	-0.0015047868
22	0x3b04cba3	0.0020262979
23	0x3ca4b763	0.020106977
24	0x3ac2baaf	0.0014856661
25	0x39a8249e	0.0003207074
26	0x3bb887cf	0.005631424
27	0xbb77cd73	-0.0037811666
28	0x3b1379d5	0.0022503037
29	0x3b55b8dd	0.0032611408
30	0xbb921173	-0.0044576465
31	0x3c7d8efb	0.015475984
32	0xbb5576e3	-0.0032572083
33	0xbc0559c7	-0.00813908
34	0x3a323f23	0.0006799569
35	0x3c062cd5	0.0081894
36	0xbb02d574	-0.0019963654
37	0xbca1ce19	-0.019751595
38	0xbb21c83f	-0.0024686006
39	0xbaaa8d7d	-0.0013012137
40	0xbc41ebf7	-0.011836044
41	0x3bca6d22	0.0061775604
42	0x3c95af9a	0.01827221
43	0x3c118e1f	0.008883982
44	0xba9431b5	-0.0011306318
45	0x3ba0a75a	0.0049027624
46	0x3c64bf0f	0.013961568
47	0x3c06c072	0.0082245935
48	0xbb892911	-0.0041858037
49	0x3ba4a5e9	0.005024661
50	0x3b9de749	0.004818831
51	0xbaad157b	-0.0013205254
52	0xbc4609a8	-0.012087263
53	0xbba22ea4	-0.0049494077
54	0x3bfefc0a	0.0077815102
55	0x3b2607fc	0.002533435
56	0xbc0f950c	-0.008763563
57	0xbc3240e6	-0.010879731
58	0xbc869ff3	-0.016433692
59	0x3b0784d2	0.0020678532
60	0xbc8b5c56	-0.017011803
61	0x3ca8a8a7	0.020588232
62	0x39a18f20	0.0003081495
63	0x3b7fd198	0.003903484
64	0x3c197792	0.009366887
65	0x39c62043	0.0003778954
66	0x3aaae769	0.0013038936
67	0x3bf20582	0.0073859105
68	0xbac0824f	-0.0014687272
69	0x3c86fd51	0.016478213
70	0xbbb3e68b	-0.0054901293
71	0x3b41a874	0.0029549869
72	0x3c0bbb9c	0.008528616
73	0xbbc925cf	-0.0061385403
74	0xbc8a1c76	-0.016859274
75	0x3b9269ff	0.004468202
76	0xbb76187f	-0.0037551222
77	0x3c3cafd7	0.011516533
78	0x3bdfcbaa	0.0068296986
79	0xbc5afa2b	-0.013365309
80	0x3c2b3edb	0.010451998
81	0x3c3da085	0.011573915
82	0x3c0b72a6	0.008511221
83	0x3a4a3e83	0.00077150034
84	0x3c8de0f7	0.017319186
85	0xbb81b369	-0.003958155
86	0x3b20a2bc	0.002451106
87	0x3bfba503	0.007679583
88	0x3a42cb87	0.00074308406
89	0x3c32db98	0.010916613
90	0x3c41e42f	0.011834188
91	0x3ba68c4f	0.005082644
92	0xbc9fe79d	-0.019519622
93	0x3aaf2f1e	0.0013365482
94	0x3be2e018	0.0069236867
95	0x3aa86938	0.001284874
96	0x3beaffab	0.0071715913
97	0x3b23e238	0.0025006663
98	0xbbaba9d5	-0.0052387514
99	0x3b0481f3	0.0020219057
100	0xbc05cfaa	-0.008167187
101	0xbc27e264	-0.010246847
102	0x3c896ae1	0.016774597
103	0x3ca02b16	0.019551795
104	0xbc80372f	-0.015651314
105	0xbc95da1d	-0.018292481
106	0xbbb7f6aa	-0.0056141214
107	0xbbef4f2d	-0.0073031397
108	0x3b779dc7	0.0037783252
109	0xbc85a909	-0.016315954
110	0x38c986ba	9.609522e-05
111	0x3bd7e4d7	0.006588559
112	0x3be0317a	0.0068418356
113	0x3c2f8d31	0.010714815
114	0xbae6bf7f	-0.0017604678
115	0x3ba4d3c7	0.0050301286
116	0x3c6711c5	0.014103358
117	0xbb3dc5a9	-0.0028956926
118	0x3c07b122	0.008281978
119	0x3c819ef9	0.015822874
120	0x3be0a3db	0.0068554706
121	0x3b2ee013	0.0026683852
122	0x3ba5f2d7	0.005064349
123	0x3c33bf57	0.010970912
124	0x3c8a969e	0.016917523
125	0xbaa2f06e	-0.0012431273
126	0x3b75e158	0.0037518349
127	0xbb70fab8	-0.0036770534
